best_model_complex.pt (torch, 3951 bytes, 5 tensors)

fc1.weight f4 [16, 8]
0	0xbd1129f3	-0.035440397
1	0x3e8300ee	0.25586647
2	0x3e9d31fb	0.30702195
3	0xbc8a6e71	-0.016898366
4	0x3e0d9752	0.13827255
5	0xbe5a52d8	-0.21320665
6	0xbe88b404	-0.2669984
7	0x3cb3c8da	0.02194636
8	0xbea72828	-0.32647824
9	0xbe943366	-0.28945464
10	0xbe46ec57	-0.19426094
11	0x3ea467c7	0.32110426
12	0xbd61fc98	-0.055172533
13	0x3dd98bb0	0.106223464
14	0xbe733e1f	-0.23754166
15	0x3dfec320	0.12439561
16	0x3e1289f4	0.14310437
17	0x3e0d52c4	0.13801104
18	0xbe53a51d	-0.20668454
19	0xbe998c0c	-0.2998966
20	0xbe59486d	-0.21219034
21	0x3e7a2ff2	0.24432352
22	0xbda2f025	-0.0795596
23	0xbbf8656a	-0.007580449
24	0x3ea8f486	0.32999057
25	0xbe599e71	-0.21251847
26	0x3e98db4c	0.2985481
27	0xbdd06460	-0.10175395
28	0x3ead4e44	0.33848774
29	0xbd730c01	-0.05933762
30	0xbde47c2e	-0.11156498
31	0xbde3d5b0	-0.11124742
32	0x3e42d248	0.19025528
33	0x3cd8d350	0.02646795
34	0x3e1cdce7	0.15318643
35	0xbd05c6e1	-0.03266037
36	0x3e1c7bf4	0.1528166
37	0x3eaddb29	0.33956268
38	0x3e5b3eb7	0.21410643
39	0x3e1c57fd	0.1526794
40	0xbe96d192	-0.29456764
41	0x3de34781	0.11097623
42	0xbe58dbd9	-0.21177615
43	0x3e3afc45	0.18260296
44	0xbe077cb9	-0.13231172
45	0x3e30f1d0	0.17279744
46	0xbd7464b3	-0.059666347
47	0xbd860d5b	-0.06545516
48	0x3ea7c1f7	0.3276517
49	0xbe6d1e76	-0.23156151
50	0x3e9a7814	0.30169737
51	0x3d55380f	0.052055415
52	0x3deb03db	0.11475345
53	0xbbe9f5c4	-0.0071398932
54	0x3cd5ec7c	0.026113741
55	0x3dbe77c6	0.09300189
56	0x3e449351	0.19196822
57	0x3e137026	0.1439825
58	0xbe8e94f2	-0.2784801
59	0x3e1ffa33	0.15622787
60	0xbccc53cc	-0.024942301
61	0x3e0b8bc3	0.13627534
62	0x3e1e11e1	0.15436508
63	0x3e30fafd	0.17283244
64	0x3cc60d5b	0.02417629
65	0xbe5944ad	-0.21217604
66	0x3e6aa49e	0.22914359
67	0xbe9924b2	-0.2991081
68	0x3e493ea8	0.19652808
69	0xbe96b418	-0.29434276
70	0xbe87e0ee	-0.26538795
71	0x3e4ab8bc	0.19797033
72	0xbe86fe52	-0.26365906
73	0x3e02fc2c	0.12791508
74	0xbe9889cb	-0.29792628
75	0x3bab1580	0.005221069
76	0xbe7bdef8	-0.24596775
77	0xbdee676c	-0.1164082
78	0x3eae7cc1	0.34079555
79	0x3e127d40	0.14305592
80	0xbdebfdab	-0.11522993
81	0x3e4235c9	0.1896583
82	0x3ea90a47	0.33015653
83	0x3e7d6805	0.24746712
84	0x3d687d72	0.05676026
85	0xbe9996e7	-0.29997942
86	0xbd31e14d	-0.043427754
87	0x3e06c460	0.13160849
88	0xbba30b00	-0.0049756765
89	0xbe886aac	-0.26643884
90	0xbe755a13	-0.23960142
91	0x3eac74db	0.33682904
92	0xbe97871e	-0.29595274
93	0x3e84df9d	0.25951853
94	0xbe4d8751	-0.2007115
95	0xbe81b7e0	-0.25335598
96	0xbe038d43	-0.12846856
97	0x3e3174d2	0.1732972
98	0xbeb2b7cb	-0.34905848
99	0x3dcbaf88	0.09945589
100	0xbe4239ce	-0.18967363
101	0xbe12af94	-0.1432479
102	0x3d76ee40	0.060285807
103	0xbe6612ef	-0.2246816
104	0xbc89b270	-0.016808718
105	0xbe7edd62	-0.24889138
106	0xbe970762	-0.2949782
107	0x3d790ba8	0.060802132
108	0xbea79b63	-0.32735738
109	0x3e10b882	0.14132884
110	0x3e3fbe3a	0.1872491
111	0x3e0ae14c	0.13562506
112	0x3d3e22e0	0.04641998
113	0xbe417c6e	-0.18895122
114	0x3e6e1fba	0.2325429
115	0xbe530605	-0.20607765
116	0xbe828e78	-0.2549932
117	0xbeb1384c	-0.34613264
118	0x3d911264	0.07083586
119	0xbd7fa018	-0.062408537
120	0xbe1707a6	-0.14749011
121	0x3e6d51b0	0.23175693
122	0xbeba0cb1	-0.36337808
123	0x3e9781b6	0.2959115
124	0xbeac7b22	-0.33687693
125	0xbc8019f5	-0.015637377
126	0xbe0c4b7c	-0.1370067
127	0x3d37764c	0.04479055

fc1.bias f4 [16]
0	0xbe2f5ab9	-0.17124452
1	0xbd9bf3c0	-0.07614851
2	0xbe6ecd61	-0.23320533
3	0x3e13be65	0.14428098
4	0xbe8297c0	-0.255064
5	0xbe0d06e7	-0.13772164
6	0xbe2eb3a9	-0.17060722
7	0x3e419a30	0.18906474
8	0x3e35d2cb	0.17756192
9	0xbe55a003	-0.20861821
10	0x3d984e43	0.07436802
11	0x3eae026f	0.33986232
12	0x3e7afe16	0.24510989
13	0x3c829f60	0.015945137
14	0x3e704126	0.23462352
15	0x3e21caf4	0.15800077

fc2.weight f4 [16, 16]
0	0xbe3d82da	-0.18506947
1	0xbe109534	-0.14119416
2	0x3d7186a8	0.05896631
3	0xbe59c3ae	-0.21266052
4	0x3e0bd898	0.13656843
5	0xbb0efd00	-0.002181828
6	0xbda35c80	-0.07976627
7	0x3dc23da8	0.09484416
8	0xbdb2c51c	-0.08729002
9	0xbc446480	-0.011986852
10	0xbe671f26	-0.22570476
11	0x3e6b31b4	0.22968179
12	0xbe2062c8	-0.15662682
13	0xbe62355a	-0.22090665
14	0x3e2fe998	0.17178953
15	0x3e5c779e	0.21530005
16	0x3e13c3cb	0.14430158
17	0xbe3ede00	-0.18639374
18	0x3df514be	0.11966847
19	0xbc073751	-0.008252935
20	0xbd8f3c65	-0.06993941
21	0x3cfd67b4	0.030933239
22	0x3e246b51	0.16056563
23	0xbdc4415e	-0.0958278
24	0x3d14798d	0.036248732
25	0xbd3e4d30	-0.04646033
26	0xbd341142	-0.04396177
27	0x3e17d6a0	0.14827967
28	0x3df73e80	0.12072468
29	0xbe6c7c82	-0.23094371
30	0xbe322b1a	-0.17399254
31	0xbdc9b265	-0.09848479
32	0x3e1ee588	0.15517247
33	0x3e412a7e	0.18863866
34	0x3e53f627	0.20699368
35	0xbe0d213c	-0.13782209
36	0xbe84829d	-0.258809
37	0xbddf305c	-0.10897896
38	0xbe1bbbb0	-0.15208316
39	0xbdd515bb	-0.104045354
40	0xbdae6fed	-0.08517442
41	0xbe4b81ec	-0.1987378
42	0x3d856c83	0.065148376
43	0xbe76ad4e	-0.24089548
44	0x3e6e9cc6	0.23301992
45	0x3d758178	0.059937924
46	0xbd889160	-0.06668353
47	0x3e2f4fe7	0.17120324
48	0x3b56660d	0.0032714636
49	0xbe78edec	-0.2430951
50	0xbd304c75	-0.043041665
51	0xbd66a3f5	-0.056308705
52	0x3dc2ed30	0.09517896
53	0x3d1b1092	0.0378576
54	0x3d99f8c4	0.075181514
55	0x3e74f200	0.2392044
56	0x3dd9da61	0.106373556
57	0x3d3e6e80	0.0464921
58	0xbe586418	-0.21131933
59	0x3d7882a8	0.06067148
60	0x3e47da1a	0.19516793
61	0x3cbd9ec0	0.023146987
62	0xbc6216e0	-0.013799399
63	0x3c0ec4f8	0.008713953
64	0x3e5a679b	0.21328585
65	0x3b3db800	0.0028948784
66	0xbdd41d24	-0.10357121
67	0xbe33c9fa	-0.17557517
68	0xbe42a610	-0.1900866
69	0xbe114cb4	-0.14189416
70	0xbe4b8bc4	-0.19877535
71	0x3e60b312	0.2194331
72	0xbe31f1fc	-0.17377466
73	0xbe72269a	-0.23647538
74	0x3d2f995a	0.042870857
75	0xbe3805b0	-0.1797092
76	0x3e229e82	0.15880778
77	0x3cdd6390	0.027025014
78	0xbdc525c4	-0.09626344
79	0x3d64fc64	0.05590476
80	0x3d554aab	0.052073162
81	0x3da215e4	0.079143316
82	0xbe424c26	-0.18974361
83	0x3e2ef376	0.1708506
84	0xbd549d1f	-0.051907655
85	0x3c633325	0.013867174
86	0x3e55d5f6	0.20882401
87	0x3e8e85b0	0.2783637
88	0x3e376ce0	0.17912626
89	0xbe75e33c	-0.24012464
90	0xbe207459	-0.15669383
91	0xbdec08d8	-0.11525124
92	0xbe2787a2	-0.16360334
93	0x3dddbb70	0.108267665
94	0x3d81f488	0.06345469
95	0xbd7f8096	-0.06237849
96	0xbe7c08d6	-0.24612746
97	0xbe5ceeaa	-0.21575418
98	0x3e1ccd54	0.15312701
99	0x3da76414	0.08173385
100	0x3df65730	0.120283484
101	0x3dda25dc	0.10651752
102	0xbe52f410	-0.20600915
103	0x3e08ce4a	0.13359943
104	0x3e40f356	0.18842825
105	0xbcb13840	-0.021633267
106	0xbe56ad3e	-0.20964524
107	0x3db59e04	0.0886803
108	0x3d2a9450	0.041645348
109	0x3da3e658	0.08002919
110	0x3e6b5714	0.22982436
111	0x3e0facd8	0.14030778
112	0xbe788848	-0.24270737
113	0x3e23eff0	0.16009498
114	0x3cf1fee0	0.02954048
115	0x3e37c74c	0.1794712
116	0xbe368898	-0.17825544
117	0xbe29c458	-0.16578805
118	0xbe348368	-0.17628253
119	0xbca9e8f0	-0.020740956
120	0x3db9f850	0.09080565
121	0x3de5bbd0	0.11217463
122	0xbe1a3b5e	-0.1506171
123	0xbde968dc	-0.113969535
124	0x3e40d8c2	0.18832687
125	0x3e1fcf44	0.1560641
126	0x3e316be2	0.1732631
127	0x3e4c57aa	0.19955316
128	0x3e32b2d4	0.1745103
129	0x3c302ea0	0.010753304
130	0xbcb66bb3	-0.022268152
131	0xbe2311fc	-0.15924829
132	0x3e008346	0.12550077
133	0xbe71e4aa	-0.23622385
134	0xbcb85334	-0.022500612
135	0x393b4e6f	0.00017862929
136	0xbe07ef21	-0.13274814
137	0x3e58ef66	0.21185073
138	0x3e02393c	0.12717146
139	0x3e1039c4	0.14084536
140	0xbc5c8680	-0.013459802
141	0x3e3e6e36	0.1859673
142	0xbdd51968	-0.104052365
143	0x3ce658a1	0.028118433
144	0xbe58afb6	-0.21160778
145	0xbdc11a80	-0.094288826
146	0x3e6f28a2	0.23355344
147	0x3d7ed279	0.06221244
148	0x3e2cf38d	0.16889782
149	0x3e0fe81e	0.1405339
150	0x3df65ae0	0.12029052
151	0x3e6de5f8	0.23232257
152	0x3e4fc76f	0.20290922
153	0xbe342c0c	-0.17594928
154	0x3e74ba47	0.23899184
155	0xbe17479c	-0.1477341
156	0xbe7d3c5c	-0.24730057
157	0x3daeeaa0	0.08540845
158	0x3d6e7428	0.058216244
159	0xbd73a3f7	-0.05948254
160	0xbe0b8588	-0.13625157
161	0xbe2cc1a2	-0.1687074
162	0x3deb0904	0.11476329
163	0xbe68f5cc	-0.22750014
164	0xbdc8bcac	-0.09801611
165	0xbe35f186	-0.17767915
166	0xbd930184	-0.071780235
167	0xbe287f10	-0.1645472
168	0x3e275a44	0.16343027
169	0x3dc6299c	0.09675905
170	0xbe7db19a	-0.24774781
171	0x3dce2b5c	0.10066864
172	0x3cdedb10	0.027204067
173	0x3e3ee2ca	0.186412
174	0xbce23610	-0.02761367
175	0x3e32e362	0.17469552
176	0xbe77cfce	-0.24200365
177	0x3e28c492	0.16481236
178	0xbda2bff4	-0.079467684
179	0x3e7575f6	0.2397078
180	0xbe064608	-0.13112652
181	0xbc60cec0	-0.013721168
182	0xbe438a02	-0.19095615
183	0x3c971d40	0.018446565
184	0xbda804d8	-0.08204049
185	0x3e244fcc	0.16046065
186	0x3d5fcaa0	0.054636598
187	0x3e1ecdba	0.15508166
188	0x3c6bc000	0.014389038
189	0x3d85a614	0.065258175
190	0x3e615902	0.2200661
191	0xbe34cff2	-0.1765745
192	0x3e826e56	0.25474805
193	0x3e000d28	0.12505019
194	0x3df177f4	0.11790457
195	0x3d12fac5	0.035883684
196	0x3db74a35	0.08949701
197	0xbe18d936	-0.1492661
198	0x3e849144	0.2589208
199	0xbe11bb3e	-0.14231583
200	0xbdb6310a	-0.08896072
201	0x3e1aa736	0.15102848
202	0x3e313fb4	0.17309457
203	0xbd9c367c	-0.076275796
204	0xbdf66264	-0.12030485
205	0xbe68a1dc	-0.22717994
206	0xbe06084c	-0.13089103
207	0xbd9bc77c	-0.07606408
208	0xbc1d4a74	-0.009600271
209	0x3e34db84	0.17661864
210	0x3db7bad0	0.089711785
211	0x3db5db2a	0.08879693
212	0xbb69da3e	-0.003568306
213	0x3d46d32a	0.048541225
214	0xbe6fa70f	-0.23403572
215	0x3c57fa27	0.0131822
216	0x3e00dd8f	0.12584518
217	0xbe2241d0	-0.15845418
218	0x3d2f9b63	0.042872798
219	0xbd910320	-0.07080674
220	0x3e2150da	0.15753499
221	0xbe7e85cc	-0.24855727
222	0x3d7827c0	0.060584784
223	0xbe0caaf4	-0.13737088
224	0x3e561722	0.20907262
225	0xbc7f5460	-0.015584081
226	0x3d2f0567	0.04272976
227	0x3e2dc067	0.16967927
228	0xbe393ad9	-0.18088855
229	0xbe16ac29	-0.14714111
230	0x3cf57d41	0.029966952
231	0x3ddca2aa	0.10773213
232	0xbe17236d	-0.14759608
233	0x3e025c4a	0.12730518
234	0x3d3fd068	0.04682961
235	0x3dbe0d28	0.09279853
236	0x3dd929c4	0.10603669
237	0x3e024034	0.12719804
238	0xbe518e18	-0.2046436
239	0xb9a7746c	-0.00031939463
240	0x3c05d6a5	0.008168851
241	0x3e470306	0.19434747
242	0x3d7baac8	0.061442167
243	0xbd7bf2e7	-0.061510947
244	0x3d41c773	0.04730935
245	0x3d9164dc	0.070993155
246	0x3e5ca377	0.21546732
247	0x3d927197	0.07150572
248	0x3e53f372	0.20698336
249	0x3e312b2c	0.17301625
250	0xbe5fb5b4	-0.21846658
251	0xbe60c4dc	-0.21950096
252	0x3e2df768	0.16988909
253	0xbe7aa1e0	-0.24475813
254	0xbe5b879a	-0.21438447
255	0xbe6ce776	-0.2313517

fc2.bias f4 [16]
0	0x3e75d028	0.24005187
1	0x3c38b6f6	0.01127409
2	0x3d9adf47	0.07562118
3	0xbe3128ce	-0.17300722
4	0xbd851114	-0.06497398
5	0xbce6102c	-0.028083883
6	0x3dd55fb8	0.104186475
7	0xbe0aaad2	-0.13541725
8	0xbe2b12a3	-0.16706328
9	0xbd325ca7	-0.04354539
10	0xbdd53b14	-0.10411659
11	0x3e057310	0.13032174
12	0x3e602d62	0.21892312
13	0xbd31af8d	-0.04338031
14	0xbe40f11e	-0.18841979
15	0x3e53fa62	0.20700982

fc3.weight f4 [1, 16]
0	0xbe62c182	-0.2214413
1	0xb9e5af9d	-0.00043809126
2	0x3e349dd8	0.17638338
3	0xbdf73c4c	-0.120720476
4	0x3cc68492	0.024233136
5	0x3e4a7668	0.19771731
6	0x3e577282	0.21039775
7	0x3db0d0ac	0.08633551
8	0x3e372920	0.17886782
9	0xbc9a78e4	-0.018856473
10	0x3e01b408	0.12666333
11	0x3d3605b0	0.044439018
12	0xbe26cbfd	-0.16288753
13	0x3d9ed0fe	0.07754706
14	0x3d6bd02c	0.057571575
15	0xbca74c86	-0.020422231
