complex_model.pt (torch, 3911 bytes, 5 tensors)

fc1.weight f4 [16, 8]
00000000: 4928 3fbe 3f28 923e 0d81 32be d89f 063d
00000010: 0a1e 1f3e 7633 b43e 9ddc 2abe 9eab e23d
00000020: 5413 a4be 72f3 f63c f01b 1c3e 2f7a dfbd
00000030: 4b8e 193e fd72 2e3e 06a9 503d 300f 093e
00000040: 5973 8fbd e47f 96bd a893 b1be c177 81bc
00000050: e014 9e3e 54e8 293e 2560 8a3d aeee d53c
00000060: cbba a43e 9cdf 0bbe a04d 163c 2540 893e
00000070: afa0 45be bf1d 933e 805e 833d c91f b2be
00000080: 8779 dfbd 1654 8f3e ba54 883c 927d e03c
00000090: 77cd 0dbe 1be8 603d 895e 15be 8c6e 66be
000000a0: bba3 8a3e d89f fe3d a5cb 383e 9aa6 6e3d
000000b0: 33de 8f3d 2174 dbbc 6eae 0fbe eb68 583e
000000c0: 76d9 2f3d d7d1 3ebd a5cf d63d 6d93 3ebd
000000d0: 550d 8f3e 4665 e23d 588c 3e3c 0b5f 52bd
000000e0: 9c98 b73e 75ad 6ebc ec5b 8cbe 1b59 ad3e
000000f0: 76f3 3a3e 5b95 1dbe 019e 653e 9cd0 96bd
00000100: 4752 8cbe 00e4 b339 938b 9ebe 4041 63bd
00000110: a734 0abe a858 853d 263a 273e c2b6 88be
00000120: e53f 5dbe 86ba 92be 0125 803e 1813 283e
00000130: 47f8 dd3d c57f 38be 5c15 2b3e da00 bd3e
00000140: 683a 9d3e 3ec9 7c3d 445c 72be 02d1 ad3e
00000150: d2f4 5dbe 2d50 96be 068d 0bbe c249 96bd
00000160: 826f 08be c0f7 733e ca08 6fbe 8dce 7ebe
00000170: 1a87 a73d 5ab8 7b3c 1114 9c3c 0af1 b0be
00000180: af89 95be 00aa 2fbc 9ea9 b0be ad8e 853e
00000190: e990 89be cf14 803e 0014 f83b d6d4 7dbe
000001a0: c1a4 da3e 0155 b33b 8332 51be a39c 12bd
000001b0: 3375 053e a64d 983e 594a 70be 9132 303e
000001c0: c989 853e c496 013d 6c9c 13be b2af 6abe
000001d0: ae26 ac3e 0bf0 843d 9602 933c c5ac 803e
000001e0: 350b 8a3e 31c9 be3c 3bb5 ae3d 2549 383e
000001f0: d92e a43d af89 0ebe d65f 8d3c 3d83 043e
-0.18667711 0.2854633 -0.17432041 0.032867283 0.15538803 0.35195512 -0.1668572 0.1106789
-0.32045996 0.03014538 0.15245032 -0.109119765 0.14995687 0.17036052 0.050942443 0.133847
-0.07004423 -0.07348612 -0.34682965 -0.015804173 0.308753 0.16592532 0.06756619 0.026114788
0.32173762 -0.13659519 0.009173781 0.2680675 -0.19299577 0.28733632 0.06414509 -0.34789875
-0.109118514 0.2799384 0.016641963 0.027403627 -0.1384791 0.054908853 -0.14586844 -0.22503108
0.2707804 0.124328315 0.18046434 0.058264352 0.07024803 -0.026788773 -0.14031383 0.21133773
0.042931996 -0.046586838 0.10488824 -0.046527315 0.2793986 0.110544726 0.01163014 -0.05136017
0.3585862 -0.014567723 -0.2741388 0.33857045 0.18256935 -0.15389006 0.22423555 -0.07364008
-0.27406523 0.00034311414 -0.30965862 -0.05548215 -0.13496648 0.065110505 0.16330776 -0.26701933
-0.21606405 -0.2865793 0.25028232 0.16413534 0.10838371 -0.1801749 0.16707367 0.36914712
0.30708623 0.061715357 -0.23668009 0.33948523 -0.21675423 -0.29358044 -0.13628015 -0.07338287
-0.13323787 0.23824978 -0.23343197 -0.2488348 0.081800655 0.015363777 0.019052537 -0.34558898
-0.29206607 -0.0107216835 -0.34504408 0.26085415 -0.2686837 0.25015876 0.0075707436 -0.24788222
0.42703822 0.0054727797 -0.20429425 -0.03579391 0.13032989 0.2974674 -0.23465861 0.1720679
0.26081684 0.031637922 -0.14415139 -0.22918585 0.3362326 0.06491097 0.017945569 0.25131813
0.26961675 0.023289295 0.08530661 0.17996652 0.08016748 -0.1391971 0.017257612 0.12940688

fc1.bias f4 [16]
00000000: 6253 b23e 6541 a0be d8b8 64be ae6a 3b3e
00000010: 5bbc 0cbb fc13 553d 160e 433e dd2c 8ebe
00000020: 32d3 593e 284d a33e a177 acbe e8aa 93be
00000030: c76c ac3e 8046 d23c 2cb5 4abe d1ab a4be
0.3482924 -0.31299892 -0.22336137 0.18302414 -0.0021474573 0.05202101 0.19048342 -0.27768603
0.21271971 0.31894803 -0.3368502 -0.2884133 0.3367674 0.025668383 -0.19795674 -0.32162336

fc2.weight f4 [16, 16]
00000000: 6659 c8bd c1c4 4cbd cc45 283e e43d 603e
00000010: 6997 de3d 7c14 0e3e b3b4 823d 0eed 923c
00000020: 0edc 38be 9a69 fcbd 5d3f f3bd d38d 983e
00000030: 405f 8bbc 75c8 47be 6393 813e 1712 093e
00000040: acd4 1dbe 4076 a3bc 720d 24be 5843 77bd
00000050: f483 1ebe 7085 f43c bcc1 4abe 8416 6b3e
00000060: 340d 5ebe 7c99 a13d e806 f23d 9c71 543e
00000070: 4451 ddbd 2850 6e3e c049 90bd 382f 85bd
00000080: 5251 c6bd 6193 253e 843a 4dbe ee90 14be
00000090: 9113 e7bd d796 063e 94bf 2e3d 3c12 5c3e
000000a0: acbb 85bd 1da1 18bd b1e6 0c3d 08e6 37be
000000b0: a6dc 77be a9e8 253b 9dc7 b53d 8424 51bd
000000c0: d01f c33d 62fb 833e ad81 55be 84fa d6bd
000000d0: 8081 833d e3ce 863c 8b3f 88bd 970b 7abe
000000e0: 225f 5b3e fddc 4c3e a629 ea3d 0d4e f1bc
000000f0: 0aca 0dbe 80ec 9abd 7e47 01be c852 dcb8
00000100: f13e 27be 9a15 5fbe 2835 3dbe d889 1bbe
00000110: e91f 4f3e 9546 563e 284a 393e 380f cabd
00000120: c048 a33d 198f 97bd 0c1b 99bc 7361 84bd
00000130: 5871 20bd aa1d 7a3e 0170 833e f649 563e
00000140: f300 ef3d 9622 fd3d ca29 b73d 800e 1dbc
00000150: ac20 4f3d 3837 6c3e 1804 563e 5163 01be
00000160: dc6b 7e3e c28d 10be c5b1 183b 7738 203d
00000170: 6682 6d3e e8cd 023e 4190 033c 79ab 15be
00000180: 26c3 5c3e dde5 483d ce1e 51be c8d5 e23d
00000190: 5a00 eb3d ccd6 d2bd 2af1 2abe a188 4f3e
000001a0: 58ab 37bd 8c56 123e 2708 6fbe db76 3d3e
000001b0: 800f c73c 4414 15be 717c 81be b883 5c3e
000001c0: 26a0 e03d dbe3 843d d4e8 90bd 9246 463e
000001d0: e8d1 6b3e 8911 f63c 0fa1 00be 52e9 743d
000001e0: 6897 09bd 910d 083e 851d aabd 41c7 d33d
000001f0: 9a25 78be 6b76 783e 4615 35bd 74d5 4a3e
00000200: abce 593e 150a 2a3e ce4a 233e b603 033e
00000210: 1b7a 943d ab8d 8c3d 2f2c 473d 15c6 79be
00000220: 1a7e 65be 013e e6bc eabf 523d 1ba2 3e3e
00000230: 44e0 9cbd 8bc7 513c b24a bdbd 9925 fbbc
00000240: 5604 d73d 5679 84bd 6cd4 d7bc 4c74 6c3e
00000250: 9aa1 80be e4d6 f6bd 989e ad3d 5835 f8bd
00000260: f0d0 ea3d 41de 853c 1857 a73d aa10 2bbe
00000270: 10f0 b13c 3e3b 0dbe a2d2 303e a1dc 7b3d
00000280: f340 38be 8495 d93d 461c a3bd 2496 7e3e
00000290: f827 e7bc 0534 473e b955 5abe 6e4d 4bbd
000002a0: f84d c83d 2691 ba3d bc01 e13d 56ad ce3d
000002b0: e434 46be b8a6 033e 2a6f f1bb 41b2 ddbd
000002c0: 807b 42be 3ea1 7cbe 8885 15bd e8a4 533d
000002d0: fcd0 7c3e 4881 143d 4ed2 6c3e 10d2 09bd
000002e0: 86a1 4f3e 28c8 bebd 445e d2bd 20f1 66bc
000002f0: b631 343e 543b b03d 1e2b 72be bcbc 263e
00000300: c41a 293e 25f3 a7bc d221 603e 1a35 333e
00000310: 4f52 81be 44b3 d93d 31cf ef3c 8ebb 82be
00000320: 3adc 05be ded7 803e ae4f 473e 9c2c 91bd
00000330: e09e 3d3c 2b71 cc3c 3108 3bbe 9520 cdbb
00000340: 8a96 243e 1a53 79be 5be9 83be 40e3 1d3c
00000350: 115b c23d 2dca b23d f75a c7bd 5322 da3d
00000360: f045 57be 24ed 29bd 1b36 2e3e cadd 84be
00000370: 60ce a13c 2830 423d 3f32 1f3e 6736 db3d
00000380: b3c0 783d a29b 90bd ac10 ba3d 8042 83bb
00000390: 6a36 0abe 2bb6 163e cc63 d43d e3f8 6ebd
000003a0: d81c 9fbd eedd e93d a6b8 583e 52a1 1f3e
000003b0: 6a7c 38be 0832 93be 7f50 8bbb 5b52 a13d
000003c0: 2495 8d3d b570 16be 8f32 62be 0044 d8bd
000003d0: 42c3 05be 7db8 0d3d dc1f 4d3e 9a1b 15be
000003e0: fc4e d53d 9e87 3abe 52b4 15be 11c4 363e
000003f0: 0c36 d93d 2b0f 7b3d 6139 8d3c ebce 0a3e
-0.097826764 -0.049992327 0.16432875 0.2189861 0.10868723 0.13875002 0.06382122 0.017935302
-0.18052694 -0.123248294 -0.1187732 0.29795703 -0.017013192 -0.19510062 0.2530776 0.13385807
-0.15413159 -0.019953847 -0.16020754 -0.06036696 -0.15480024 0.029848784 -0.19800466 0.22957808
-0.21684724 0.07890603 0.118177235 0.20746464 -0.10806516 0.23272765 -0.07045317 -0.06503147
-0.09683479 0.16169502 -0.20041853 -0.14508411 -0.11283029 0.13143478 0.042663172 0.21491331
-0.06529936 -0.037263025 0.034399692 -0.17958844 -0.24205264 0.0025315678 0.08875964 -0.051060215
0.09527552 0.25777727 -0.20850249 -0.10497001 0.064211845 0.016456073 -0.06652745 -0.24418484
0.21423009 0.20006175 0.11433725 -0.029456163 -0.13846603 -0.0756464 -0.12624928 -0.00010505837
-0.16332604 -0.21785584 -0.18477309 -0.15189302 0.20227017 0.20925362 0.18094695 -0.09866184
0.0797286 -0.074003406 -0.018689655 -0.064638995 -0.039170593 0.24425378 0.2567139 0.20926651
0.11670103 0.12360112 0.089435175 -0.009585977 0.050568268 0.2306794 0.20899999 -0.12635542
0.24845833 -0.14116576 0.0023299318 0.03911635 0.23194274 0.1277386 0.008029998 -0.14616193
0.21558818 0.04904734 -0.20421907 0.11075932 0.114746764 -0.102948755 -0.1669356 0.20266964
-0.04484114 0.14290828 -0.23342954 0.18502371 0.024299383 -0.14558512 -0.25290254 0.21534622
0.10968046 0.064887725 -0.070756584 0.19362858 0.23029292 0.030037658 -0.12561439 0.059792824
-0.033591658 0.13286425 -0.08306412 0.10340739 -0.24233094 0.24263923 -0.04420974 0.19807988
0.21270244 0.16605408 0.15946504 0.12794384 0.07249852 0.068629585 0.04862612 -0.24391969
-0.22411385 -0.028105738 0.051452555 0.18616526 -0.07659963 0.012803922 -0.092427626 -0.030657576
0.10498874 -0.064684555 -0.026346408 0.23091239 -0.25123292 -0.12052706 0.08477515 -0.121195495
0.11465633 0.01634133 0.08170909 -0.16705576 0.021720916 -0.1379213 0.1726785 0.061489705
-0.17993526 0.10624221 -0.07964377 0.24861962 -0.0282173 0.19453438 -0.21321763 -0.04963439
0.09780496 0.09109716 0.10986659 0.10091655 -0.19356114 0.12856567 -0.007367988 -0.10825015
-0.18992424 -0.24670884 -0.0365043 0.05167094 0.24689096 0.036256105 0.231271 -0.033647597
0.2027646 -0.093155205 -0.10271886 -0.014095575 0.17597088 0.08605066 -0.2364926 0.16282934
0.16514117 -0.020501683 0.21887901 0.17500725 -0.2525811 0.10629895 0.029273601 -0.25533718
-0.13072291 0.25164694 0.19463989 -0.07088587 0.011573523 0.024956306 -0.18264844 -0.0062599876
0.16073051 -0.24348107 -0.25763974 0.0096367 0.09490026 0.08729968 -0.09734147 0.10651078
-0.21022773 -0.04148592 0.17012827 -0.25950462 0.019751728 0.047409207 0.15546511 0.10703736
0.060730647 -0.070609346 0.09085211 -0.00400573 -0.1349732 0.14717929 0.10370597 -0.058342826
-0.077691734 0.11419283 0.21164188 0.15588883 -0.1801621 -0.28749108 -0.0042515392 0.07877036
0.06913212 -0.14691432 -0.22089599 -0.10559845 -0.13062766 0.03459977 0.20031685 -0.1456131
0.10415456 -0.18215796 -0.14619568 0.17848231 0.10606012 0.061293762 0.017239274 0.13555495

fc2.bias f4 [16]
00000000: 19dd 23be c011 963b 7b13 98bd 4348 0d3e
00000010: b0d1 47be efd0 43be 08e9 9bbd 0315 86bd
00000020: 9ec8 693d b1a9 02be 1ab9 813d 8cc1 bcbd
00000030: e21b b0bd b1f9 e53d bfb5 00bd c4ca 86be
-0.16002311 0.0045797527 -0.074255906 0.13797097 -0.19513583 -0.1912267 -0.076128066 -0.065469764
0.05707609 -0.12760045 0.063341334 -0.09216604 -0.08599068 0.112292655 -0.031423327 -0.26326573

fc3.weight f4 [1, 16]
00000000: 1b6e 013e 848e 453e 7c3d 4c3e 2703 91bd
00000010: 0daa 013d 70db 8bbd f11b 053e 550d b13d
00000020: 1999 1bbd 02af 2f3e fced 113e de6a 72be
00000030: 3bf4 63be 074b 0dbd 1c42 6abe 5665 9b3d
0.12639658 0.19292647 0.1994533 -0.070806794 0.031656314 -0.06828964 0.1299894 0.08645121
-0.037987802 0.17156604 0.1425094 -0.23673579 -0.22261135 -0.03449538 -0.22876781 0.07587688
