complex_model.pt (torch, 25557 bytes, 11 tensors)

fc1.weight f4 [16, 8]
000000 1c 4a bc bd 8c 6e 9c 3d 88 1b 77 be a0 16 09 be
       -0.09193823 0.07638273 -0.24131596 -0.13387537
000010 2d ce 37 be 0b 85 06 be ab 8e f5 bd 52 01 a6 3d
       -0.17949744 -0.1313669 -0.119901024 0.081057206
000020 83 f9 b6 3a 8b 55 17 bd 7a f9 3a be e3 e2 67 3e
       0.0013959858 -0.036946815 -0.1825923 0.22645144
000030 eb ed 3b 3c 31 3c a7 3d 4a 0e 94 be c3 62 11 be
       0.011470298 0.081657775 -0.28917152 -0.14197831
000040 79 52 f6 bd 0f 8d 54 be df 13 5d 3e 8f 7e 48 be
       -0.12027449 -0.20756935 0.21589611 -0.19579528
000050 55 0c 91 be 6b e4 9c 3e 5c 08 cd 3d eb 74 b6 3e
       -0.2832972 0.3064302 0.1001136 0.35636076
000060 5f 44 a2 be 97 04 a4 be f1 ec 86 3e 64 8c 42 3e
       -0.31692788 -0.32034752 0.26352647 0.18998867
000070 d9 96 d7 be cf 35 f1 bd 98 24 be be a1 e4 c3 3d
       -0.42107275 -0.11777841 -0.37137294 0.09565092
000080 f1 22 60 3e 78 76 e7 3c 9a 77 c7 be b8 f6 20 be
       0.21888329 0.028254732 -0.38958436 -0.15719116
000090 42 16 ee 3d b9 02 cc be db 62 27 be 35 61 ba 3d
       0.11625339 -0.39845827 -0.16346304 0.09100572
0000a0 7b 74 4a be 3a b8 90 be 8c 97 9a be 05 10 83 3e
       -0.19770996 -0.28265554 -0.30193746 0.2559816
0000b0 73 02 3c 3e 16 a0 3f 3d ff 9b ff 3e b3 e4 66 be
       0.1836031 0.04678353 0.49923703 -0.2254818
0000c0 8a 1e f9 3e 1e fa 19 3e 30 54 b8 be c9 5c c6 3d
       0.48656112 0.15036818 -0.3600173 0.09685666
0000d0 58 7f 57 3d 9c 94 5e be 97 79 cf 3e 1a 23 d1 3e
       0.05261168 -0.21736377 0.40522453 0.40847093
0000e0 33 85 e0 3e e1 75 5d be 87 03 c5 be bf 71 a1 3e
       0.43851623 -0.21626998 -0.38479254 0.31532094
0000f0 5d cf 20 3e a8 ca 8d be 22 ee 1b be de a8 37 be
       0.15704103 -0.27693677 -0.15227559 -0.17935511
000100 75 ee b1 bd 15 20 98 be 71 81 7e 3e 31 b4 7e be
       -0.0868806 -0.29711977 0.24854065 -0.24873425
000110 41 97 72 be bf b4 87 bc c4 0b 74 3e 3a 9d 9f 3d
       -0.23690511 -0.016565679 0.23832613 0.077936605
000120 bc 29 79 be 15 dd d6 3c aa de 1d be 1b a3 bb be
       -0.24332327 0.026228467 -0.15416971 -0.36647877
000130 c3 e4 90 be 2c a1 41 3e 78 3f 03 bf 04 bc 0d be
       -0.2829953 0.18909138 -0.5126872 -0.13841254
000140 ff 08 1e 3e df 10 6a 3e ca 35 8f be 5e 05 ef 3d
       0.15433119 0.22857998 -0.27970725 0.116709456
000150 18 59 84 be e2 50 14 be ca de b7 3c 66 af 8f be
       -0.25849223 -0.1448398 0.022445101 -0.28063506
000160 11 89 9c be a0 3c bb bc 3f 27 05 be c7 21 08 be
       -0.30573323 -0.022856057 -0.13003252 -0.13294135
000170 76 b0 cc bc 5e 97 f5 bd 6b e6 80 be 54 45 8e be
       -0.024986487 -0.119917616 -0.25175795 -0.27787268
000180 98 11 4d be 99 24 b0 be 63 ac a6 be 61 b3 12 be
       -0.20026243 -0.34402922 -0.32553396 -0.1432624
000190 b8 de ad bd 91 2c 2b be 24 c0 14 be fd 13 90 3e
       -0.08489746 -0.1671622 -0.14526421 0.2814025
0001a0 99 19 35 3f 31 20 b2 3e b7 82 f7 be d5 28 2b 3d
       0.70742184 0.34790185 -0.48341915 0.041786987
0001b0 ed a4 05 bd 8b 65 90 be 7f 5c bf 3e 62 74 61 3e
       -0.03262799 -0.2820247 0.37375256 0.22017053
0001c0 ea c4 a1 be a2 6f 92 be 1a cc 5e 3e 82 e1 14 3e
       -0.31595546 -0.28600794 0.21757546 0.1453915
0001d0 7c 4f c4 bd 37 d4 81 3e 53 f1 1d be 3e 2d 9d 3d
       -0.09585473 0.2535722 -0.15424089 0.07674645
0001e0 20 20 4f be f9 21 b2 be 2e 76 91 be 82 b2 2f 3e
       -0.20227098 -0.34791544 -0.28410476 0.17157939
0001f0 bd f0 39 be 3b 3d 80 3e 60 b4 b9 3d 96 e3 b2 be
       -0.1815824 0.25046715 0.09067607 -0.3493926

fc1.bias f4 [16]
000000 63 55 7d bd c6 3f 04 3e 25 23 82 bd 06 e7 45 3e
       -0.06184901 0.12914953 -0.063543595 0.1932641
000010 69 66 a8 be 4c 6c a7 be 92 30 00 bf e4 38 9d be
       -0.32890633 -0.3269981 -0.5007411 -0.30707467
000020 e3 8e d0 be bb b8 96 be eb d9 c8 bd 1e 47 3b bd
       -0.40734014 -0.29437813 -0.098071896 -0.04572212
000030 6f dc 9c 3e 4d 32 f0 be 68 e5 b5 3e 36 22 23 be
       0.30636927 -0.46913376 0.35526586 -0.15931019

fc2.weight f4 [32, 16]
000000 3a 38 cc bd 08 b4 b1 3c d5 aa 61 be a9 d3 2b be
       -0.09971662 0.02169229 -0.22037823 -0.1677996
000010 28 45 19 3e 55 30 e4 3d f2 6a 54 3e 6c 8c d7 bc
       0.14967787 0.11142031 0.20743921 -0.026312076
000020 aa 88 20 be a1 3f 32 3e bc d8 85 be fb 59 2e bc
       -0.15677133 0.17407085 -0.26141918 -0.01064157
000030 38 d2 a1 3d b9 13 92 3e 7c 16 0f be 66 b1 37 3e
       0.07901424 0.28530672 -0.13973421 0.17938766
000040 a0 7d dc bc 53 34 bf bd 70 90 2a 3e 3b 6d 63 bb
       -0.026915371 -0.09336152 0.16656661 -0.0034702558
000050 fc 61 2c 3c ac d9 03 be d7 d0 66 be d8 31 5d 3e
       0.010521408 -0.12876004 -0.22540604 0.21601045
000060 44 3f 85 bd a2 c4 2c be 8c cf 83 bd fb a9 8e be
       -0.065062076 -0.16871884 -0.06436071 -0.2786406
000070 b8 24 6d 3d 71 6c f1 bd fe 30 80 be f0 5a e9 3d
       0.057896346 -0.11788262 -0.25037378 0.11394298
000080 35 df 18 3e 89 79 8b bd b8 a5 35 3e 09 c5 54 be
       0.14928897 -0.0681029 0.17738998 -0.20778288
000090 28 5d ab 3d 22 45 a8 be 68 78 06 be 14 f4 89 be
       0.083673775 -0.32865244 -0.13131869 -0.2694403
0000a0 6e 93 17 be 70 63 20 3e e0 53 3b be 17 ec 4f bd
       -0.14802334 0.15662932 -0.18293715 -0.050762262
0000b0 80 a9 6a bc da ba a6 bd 7b 9f 6a 3e dc 8b 36 3e
       -0.0143226385 -0.08141108 0.229124 0.1782679
0000c0 ac 82 02 3d e4 ed 1c be ca eb 23 be d3 39 b6 bd
       0.0318629 -0.15325123 -0.16007915 -0.08897748
0000d0 52 73 f7 3c 95 2f d3 bd 0f 78 90 be e9 e0 b8 be
       0.030206356 -0.1031181 -0.28216597 -0.36109093
0000e0 3b 7d 0a 3e 7e ce 99 bd 6e c3 08 bd 14 8d c7 3d
       0.13524334 -0.075100884 -0.0333895 0.097437054
0000f0 aa 2c 14 3e 01 b3 4c bd 30 f7 57 3d e0 90 0e 3c
       0.14470163 -0.0499754 0.05272597 0.008701533
000100 b6 8e a6 be ba 6e 20 be 05 78 c1 3c 4e 04 63 bd
       -0.32530755 -0.15667239 0.0236168 -0.055424027
000110 5e 8f 68 3c 06 28 b8 3d 9c 49 8c bd c5 ba 30 be
       0.014194338 0.08992009 -0.068499774 -0.17258747
000120 34 cf 00 3e d5 cf 1f 3e cd 3c 04 be 56 b4 e9 3b
       0.12579042 0.15606625 -0.12913819 0.0071320934
000130 c0 e2 81 3c d1 b6 d0 bd e4 31 c3 bd 08 b8 2c 3e
       0.015855193 -0.101911195 -0.09531 0.16867077
000140 7d da f6 3d 2e 0a 39 be ea 89 b5 3d 82 fe 3a be
       0.12053392 -0.1807029 0.08864196 -0.1826115
000150 ce b6 80 3e e8 a4 97 bb 4b 0c b0 bd 21 67 40 be
       0.2513947 -0.0046278127 -0.08596095 -0.1878934
000160 c4 e4 94 3d d0 61 85 3d 4d 2c eb bd bd 3c 67 be
       0.07270196 0.06512797 -0.11483059 -0.22581764
000170 0e d5 4e 3e a1 b4 83 3e 9f 02 15 be 98 32 68 be
       0.20198461 0.25723746 -0.14551781 -0.2267555
000180 d1 b9 12 be 49 d6 34 be 29 95 db bd 11 5f 5b bd
       -0.14328696 -0.17659868 -0.107218094 -0.05355746
000190 f3 b8 36 be d4 d7 fe 3c 15 59 df bd 48 80 95 be
       -0.1784399 0.031108774 -0.10905663 -0.29199433
0001a0 5c bc 92 3d a1 14 87 3e 84 54 9f bb c4 f0 0c 3e
       0.07164833 0.26382926 -0.00486237 0.1376372
0001b0 76 51 40 be ce 4b 62 3e 9c a3 0a be 70 32 c6 bd
       -0.18781075 0.2209923 -0.13538975 -0.09677589
0001c0 a7 43 f4 3d 05 91 ca 3d 70 08 f4 bd d6 1d 93 3e
       0.11926966 0.098909415 -0.11915672 0.287337
0001d0 1d f5 53 3e 7d 0f 15 bd 63 47 90 3d 1e 23 3f be
       0.20698972 -0.036391724 0.07044866 -0.1866574
0001e0 39 af f0 bd fe 0f d1 3d 60 0e 3d be 02 eb 37 be
       -0.11752171 0.102081284 -0.18462515 -0.17960742
0001f0 f2 a8 0c be 1a a6 a8 3e 14 85 2e bd f8 d3 99 3d
       -0.13736323 0.32939225 -0.042607382 0.07511133
000200 2f fb b7 bd be e1 da 3b ea 46 83 3e db b5 70 3d
       -0.08983456 0.0066797426 0.2564004 0.05876718
000210 c7 4e 63 be 28 2e b5 be 57 4d c8 bd c5 05 8a 3e
       -0.2219802 -0.35386777 -0.097803764 0.26957527
000220 38 84 13 3b b3 9a c9 bb 99 4c 6e 3e 82 4c 6c be
       0.0022509228 -0.006152475 0.23271407 -0.2307606
000230 e4 29 4a 3e 4f df a1 be c6 0c 40 3e 38 62 5b bd
       0.19742543 -0.31615683 0.18754873 -0.053560466
000240 71 c4 8b bd a2 a1 9b bd 9c a6 bc bd b5 14 42 bd
       -0.068245776 -0.075991884 -0.09211466 -0.04738303
000250 14 25 4d 3d 5d 49 de bd 17 d5 e3 3d 0e 86 1c 3e
       0.05008419 -0.10853837 0.11124628 0.15285513
000260 f2 04 a8 3d 86 61 bd 3d bf ad d4 bd bb ed 09 bd
       0.08204068 0.09247117 -0.10384702 -0.033673983
000270 b6 ee 27 be 3a d9 80 3e cb 22 55 be 78 dc ea 3d
       -0.16399655 0.2516573 -0.20814054 0.11467832
000280 db be 10 bd fe 38 bb bd fd 93 7f 3d 80 67 8b be
       -0.035338264 -0.0914173 0.062396992 -0.27227402
000290 b9 8e fc 3d fc a7 0e 3d 9d 41 4b 3e b6 ed 1f bd
       0.1233191 0.03482817 0.19849248 -0.03904506
0002a0 01 35 a8 3c 73 01 d7 bc 3f 3c 9e 3d e2 80 f5 bc
       0.020533087 -0.026245808 0.07726335 -0.029968683
0002b0 0c 40 32 be 2b b8 d9 3d 38 83 81 be f0 7b dc 3d
       -0.17407244 0.106308304 -0.25295424 0.10765827
0002c0 be 1a 3b 3d fd ba a8 3d 9a 21 63 bd ab 6a 43 be
       0.0456798 0.0823879 -0.055451967 -0.1908366
0002d0 7d 28 91 3d 18 a6 a1 be 94 71 7e bd f0 28 b5 be
       0.07087801 -0.31572032 -0.062120035 -0.35382795
0002e0 6a b7 f5 bd a4 15 86 3d 79 4d 70 be ff 84 5b bc
       -0.11997874 0.06547096 -0.23467053 -0.013398408
0002f0 c0 b8 57 be 1d 36 b4 bd 7f 24 6b be bc 93 a8 bd
       -0.2106657 -0.08799384 -0.22963141 -0.08231303
000300 b7 9d 8d 3e cf 79 d4 3d 80 4a e3 bd 44 15 1f 3e
       0.2765939 0.10374796 -0.11098194 0.15535456
000310 d7 38 62 3e 92 31 1c 3e ef 2f f3 3d 80 33 d4 bd
       0.22091995 0.15253285 0.11874377 -0.10361385
000320 80 37 9a bd a9 0f 1e 3e a1 f6 ff bc 51 a8 ee bd
       -0.07530117 0.15435661 -0.031245532 -0.116531976
000330 6e 7d 2d be b3 fa d8 3e 67 90 5a be 58 e9 3b 3e
       -0.16942379 0.42378768 -0.21344148 0.18350732
000340 a6 54 11 be 78 c8 9e be 6e 08 2c 3e e1 60 61 3e
       -0.14192447 -0.3101232 0.1680009 0.22009613
000350 4e f0 cb bc 20 61 8a 3e e7 3e 31 be be 14 51 3e
       -0.02489486 0.27027225 -0.17309152 0.20418069
000360 38 9b 2e 3d 30 27 2c bd a0 bb 42 bc 7c aa 8c bc
       0.042628497 -0.04202956 -0.011885554 -0.017171137
000370 48 96 55 be 4e 91 8d 3c fb c6 89 3e 80 aa cc 3d
       -0.20858109 0.0172812 0.26909623 0.09993458
000380 6f 83 65 3d d9 08 86 3c 1c 21 b7 bd a8 32 82 be
       0.056033548 0.01636164 -0.08941862 -0.25429273
000390 e9 27 db 3d 16 f6 06 be d2 91 3e be f1 2c 77 be
       0.10700972 -0.13179812 -0.18610314 -0.24138238
0003a0 ee c2 e5 3d f4 a8 08 be 0e 5c 48 be f8 4c 4f 3d
       0.112188205 -0.133457 -0.19566366 0.050610512
0003b0 7c 9f 78 be 34 84 08 3e 6b 45 c1 be 00 45 c8 3a
       -0.24279588 0.13331681 -0.37748274 0.0015279353
0003c0 2d f8 d7 bd 83 ff 35 bd 45 95 bc bd 91 c3 32 be
       -0.10545383 -0.044433128 -0.092081584 -0.17457415
0003d0 60 d5 5d be c0 bc 02 3d 4c 2b b7 be c0 43 3f be
       -0.21663427 0.031918287 -0.3577522 -0.18678188
0003e0 44 4c 1e be fb f4 bb 3d 17 35 2b 3e 54 93 2d be
       -0.1545878 0.09177586 0.16719471 -0.16950732
0003f0 a8 ba 23 3d 1b c8 ac 3d 89 34 22 3e 60 ba 38 3c
       0.03997293 0.084366046 0.15840353 0.011274904

fc2.bias f4 [32]
000000 d4 b2 ee be ee b5 b3 be 02 a9 ec 3e f5 28 0f bd
       -0.4662081 -0.3509974 0.46222693 -0.03495117
000010 e5 eb 1a be ef a9 08 bf 89 f4 08 bf f5 02 4b be
       -0.15129049 -0.533843 -0.5349813 -0.19825347
000020 d1 03 a7 3e f5 0d 2f bf 03 38 ef be d3 68 c6 be
       0.326201 -0.6838067 -0.4672242 -0.3875185
000030 82 10 94 be 3d 00 1d 3f 0c 88 31 bd f5 0f cf be
       -0.28918844 0.6132849 -0.043342635 -0.40441862
000040 e1 f7 0a bf 06 af d8 bd f6 56 0d 3d 87 3d 09 be
       -0.54284483 -0.10580258 0.03450676 -0.13402377
000050 69 4a dc 3e 5d 37 8c be ce 8b f0 bd 94 99 fe 3e
       0.4302552 -0.2738599 -0.11745416 0.49726546
000060 a6 13 17 3f c7 6f ba bd 66 b5 ac be 00 2a 39 3e
       0.59014356 -0.09103351 -0.33732146 0.18082428
000070 27 1c 82 3e 73 86 24 bb f4 77 a8 bd f3 8e e9 3e
       0.25412104 -0.0025104552 -0.08226004 0.45616874

fc3.weight f4 [64, 32]
000000 cd a8 02 3d 32 1f ad be 38 30 0e 3e c7 c2 f8 3d
       0.031899262 -0.33812863 0.13885581 0.12146526
000010 89 ef 6d 3e 51 5f 84 3e 67 6a db 3d 48 16 1d 3e
       0.23235907 0.2585397 0.10713654 0.15340531
000020 bf c2 26 3c c2 88 c4 3d f5 0a f8 bd 74 51 44 3d
       0.010178267 0.09596397 -0.12111465 0.047929242
000030 27 18 8c bd 81 f6 df be b8 6a fa bc 6a f7 16 3e
       -0.06840544 -0.43742755 -0.030568466 0.14742818
000040 21 80 ae 3d ba 67 2c be be b5 91 bd eb 14 5f be
       0.085205324 -0.16836444 -0.07114743 -0.21785323
000050 b0 2b 7c be 36 25 64 3d 73 fc a4 3b db 20 52 be
       -0.2462604 0.05569955 0.005034977 -0.20520346
000060 11 fd 1c be ce cc c3 bd 4c 96 06 3c 2b ae 15 be
       -0.15330912 -0.09560548 0.0082145445 -0.14617221
000070 f1 73 53 bc a0 c1 2d bd 48 fd 1d bd b9 15 41 be
       -0.012906061 -0.042420983 -0.038571626 -0.18855943
000080 5f e6 b0 bd 25 50 a8 3c 51 c8 41 be 44 b0 a2 3d
       -0.0863769 0.020546028 -0.18924071 0.07943776
000090 89 08 08 be dd e5 90 bd 49 3c 65 bc e6 c7 54 3d
       -0.13284506 -0.07075093 -0.013991424 0.05194845
0000a0 3c 8f ae bc 2a fa 46 bd ad 5e 0e be 60 60 3f 3e
       -0.021308534 -0.04857842 -0.13903303 0.18689108
0000b0 e0 74 84 bd 2c 72 6d be ba 1c c0 3b d2 de 71 bd
       -0.06467605 -0.23188084 0.0058627995 -0.05905039
0000c0 54 fd 15 3d 89 2d 5a bc ad 4d 3e bc bc 02 fc 3a
       0.036618546 -0.0133165205 -0.011615199 0.0019226889
0000d0 15 0e 38 be 07 52 34 3d b1 a9 89 3d ea 93 c5 bd
       -0.17974122 0.04402354 0.06721819 -0.09647353
0000e0 55 2f 4b bd 75 3f f5 3d 8f d1 e5 3d e9 d5 8b bd
       -0.049605686 0.11974994 0.11221611 -0.068279095
0000f0 2e 50 9d bd 36 b2 26 be da a7 61 be bf 74 c3 3d
       -0.07681309 -0.1627892 -0.22036687 0.09543752
000100 b9 4f 33 be 74 05 d7 ba 32 b3 98 3d 56 a1 21 bb
       -0.1751088 -0.0016404823 0.07456054 -0.0024662814
000110 3d e7 cd bd a8 a2 77 3d dd c8 a4 be 64 23 87 be
       -0.10053871 0.060457855 -0.32184497 -0.26394188
000120 ea 65 24 3c 2c c4 36 3c 36 93 54 be 17 6c ab 3d
       0.010034064 0.011155169 -0.20759282 0.08370226
000130 ee 7d 90 bd 2c 66 2c bd de e4 f4 bd 18 e5 ec bc
       -0.07055269 -0.042089626 -0.119577155 -0.028917834
000140 0b 2c 31 3c 9d 0f 37 3d c4 a1 53 bc 56 ca 85 bd
       0.010813723 0.044692624 -0.012916986 -0.06532733
000150 85 ca 82 3c 2b d5 b3 bd ac 24 07 be cd d4 ac bd
       0.01596571 -0.08780893 -0.13197583 -0.08439026
000160 ea be f6 bd 68 0e 9c bd 4e d5 26 be 50 94 ca bd
       -0.12048133 -0.07619935 -0.16292307 -0.098915696
000170 b4 f4 54 3d 36 62 65 bd 80 f7 b6 bd 9d 64 57 be
       0.05199118 -0.056001864 -0.08933926 -0.21034475
000180 b3 61 b5 be 1a 16 89 3e b8 5b 43 3e 14 30 17 3e
       -0.354261 0.26774675 0.19077957 0.14764434
000190 71 96 d8 3c 8d 81 a9 be b0 b2 2e 3d 38 60 69 be
       0.026438924 -0.33106652 0.04265088 -0.22790611
0001a0 2a a5 fb 3c 03 3c 38 be b0 32 6b bc c7 40 05 bd
       0.030718405 -0.17991643 -0.014355347 -0.03253248
0001b0 31 3d f9 bd 07 59 11 3e 7a b6 d8 3b 5f d9 c2 3c
       -0.121698745 0.14194117 0.00661355 0.023785291
0001c0 57 0f 68 bd fe fd 8c bd 4e 7c 16 3d c6 3f ee 3d
       -0.056655254 -0.06884383 0.03673964 0.116332576
0001d0 dc 77 92 3d 69 02 9c 3d 17 a9 e7 bd 6e dc 99 3d
       0.071517676 0.07617647 -0.11311548 0.07512747
0001e0 2d 8c 10 3d da e8 8b bd e5 80 85 bc 93 66 10 3e
       0.035289932 -0.06831522 -0.016296813 0.14101629
0001f0 ac 04 1b 3e 1f 69 8d 3d b5 8e 46 3d 61 0b 48 3e
       0.15138501 0.06904816 0.04847594 0.1953559
000200 59 ae 8e bd ed ee a6 bd 9c 43 51 be 95 c6 f9 3c
       -0.06966848 -0.0815104 -0.20435947 0.0304902
000210 11 0a 1c bc d0 1f f0 3d 16 51 1e 3e a3 fa 66 3d
       -0.009523884 0.11724818 0.1546062 0.05639137
000220 aa ea 04 3e cf 9a 64 bd b8 f2 99 bd 23 e2 98 3c
       0.12980142 -0.0558117 -0.07516998 0.018662518
000230 da e2 25 3e 32 7a 0b bf 22 2b 28 bd 44 e8 a9 3d
       0.16199818 -0.5448333 -0.04105676 0.08296254
000240 8e 28 1a bc f5 84 e2 3c 3a ec 38 be f3 0e 2f be
       -0.009409083 0.02765129 -0.18058863 -0.17095546
000250 90 54 8b 3e c2 4f 85 3e 09 fa 01 3d c0 fa 9e bd
       0.27212954 0.26037413 0.031732593 -0.077626705
000260 58 d5 e6 bd fd 20 02 3e 9d f8 2e 3e cb 67 01 be
       -0.11271161 0.12707897 0.17087026 -0.1263725
000270 24 ef 1a be 73 8f 8e 3d f5 23 33 3e 6d bc 78 bd
       -0.15130287 0.069609545 0.17494185 -0.06072657
000280 71 e2 2a 3d 87 13 e7 bd aa da 1a be 03 13 40 be
       0.041719858 -0.112830214 -0.15122476 -0.18757252
000290 5c 49 92 bd 08 06 6a be a5 84 91 be be c5 0b be
       -0.071428984 -0.22853863 -0.28421512 -0.13649651
0002a0 70 4e 28 bd 88 8f 4a 3d e2 94 17 3d 88 91 42 bd
       -0.04109043 0.04945329 0.03700722 -0.04750207
0002b0 15 80 81 be 5a 61 90 bd c3 84 6b be 76 1d b1 3a
       -0.2529303 -0.07049818 -0.22999863 0.0013512808
0002c0 68 43 78 3e ee 76 84 bd 3a 9e 54 3e bd 45 91 3e
       0.24244463 -0.064679965 0.20763484 0.2837352
0002d0 8a 7e 2c be dc 6b 20 3e 10 92 80 bd 6a 27 81 be
       -0.16845146 0.15666145 -0.06277859 -0.25225383
0002e0 34 f6 2d be 96 c1 e6 bb 26 1b fb bd ed 60 52 3d
       -0.1698845 -0.00704212 -0.122610375 0.051361967
0002f0 2f 27 c2 bd 50 54 4f be 27 e8 53 be 7a 49 82 3d
       -0.0948013 -0.20247006 -0.20694028 0.06361671
000300 53 9f 1f 3e 32 32 54 be 3b 04 77 3e 71 f1 83 bd
       0.15588121 -0.20722273 0.24122708 -0.06442536
000310 17 f5 7a 3d b0 b6 ce 3c 9b ab 97 be 2a 12 d6 3d
       0.061268892 0.025233597 -0.29623112 0.10452683
000320 0f 1a d6 3d 31 17 bd 3d b4 23 df 3c 1f ce e5 3d
       0.10454189 0.09232939 0.027238704 0.11220955
000330 a0 47 96 bb 15 ff 46 bf 58 e0 5f 3c 3a 88 c1 bd
       -0.004586175 -0.77732974 0.013664328 -0.09449811
000340 a6 5f 6d 3e 97 9c 17 3c 0f 78 11 3e 5d 51 31 bd
       0.23181018 0.0092536425 0.14205955 -0.043290485
000350 cd c0 8e bb 51 41 1d bd 2c ac cc bc 95 f7 2c 3e
       -0.0043564797 -0.03839237 -0.024984442 0.1689132
000360 e3 20 81 bd 4a 0c 37 be cd 18 b1 3d a5 2d 4c 3c
       -0.06305101 -0.17875782 0.086473085 0.012462054
000370 52 4b ee 3d ce 5b 5a 3e 0d 1b 0c 3e ba 7e 25 be
       0.1163546 0.21324083 0.13682194 -0.16161624
000380 67 4c 3a be 69 45 5e be 55 41 f6 3d c3 c2 50 3b
       -0.18193208 -0.21706165 0.1202418 0.0031854368
000390 a7 48 15 3d f4 67 59 be ab 9c 5c be e5 48 22 3d
       0.03644624 -0.21231061 -0.21544139 0.0396203
0003a0 6d 9c dc 3e 2d 8f 8d bd a0 26 2c 3d 7f 9d 5e be
       0.43088093 -0.06912074 0.042029023 -0.21739767
0003b0 ec 02 65 be 9e de 07 3f f4 f2 36 be f7 48 ea 3e
       -0.22364396 0.5307406 -0.17866117 0.45758793
0003c0 2f 50 56 be 97 0b 36 bd f8 d6 19 3e f7 22 f6 bd
       -0.20929025 -0.044444647 0.1502341 -0.12018388
0003d0 86 93 3a 3e a8 cb 63 bd f0 7a 8e bc 94 8d 92 3d
       0.18220338 -0.055614144 -0.017392606 0.0715591
0003e0 21 d4 46 bd 0c 9f 05 3c 03 53 6c 3d 8f 9c 4f bd
       -0.048542146 0.0081555955 0.057696354 -0.050686415
0003f0 09 2a a7 bd 7d 7d 12 3d a7 bc ca 3d 82 e0 f4 bb
       -0.081623144 0.035764206 0.09899264 -0.0074730525

fc3.bias f4 [64]
000000 00 0c 8a be 56 f2 3d bd 7a bf 88 be 2d 32 44 3f
       -0.2696228 -0.046373688 -0.26708585 0.7663906
000010 ce 59 07 be 92 9c 3a be d9 f7 82 be e2 3e 15 3e
       -0.13217852 -0.1822379 -0.25579718 0.14574769
000020 9b 66 45 be e6 a4 e7 be 31 05 7e be 05 44 eb bc
       -0.19277422 -0.45242995 -0.24806668 -0.028718958
000030 a6 3e 8b be f5 ed 6b be 6d 03 1e 3f e3 e0 77 3e
       -0.27196234 -0.23039992 0.6172398 0.24206881
000040 f0 bb 61 be 6d 9b 49 be 81 5d 05 3f 02 89 37 be
       -0.22044349 -0.19688196 0.520958 -0.17923358
000050 8e 8f 40 be 49 56 b3 bd f5 47 f1 3e ab 2c c4 3e
       -0.18804762 -0.08756692 0.4712521 0.3831533
000060 19 de 9e 3d be 99 05 3f fc a2 63 be 1f 89 33 3f
       0.077572055 0.52187717 -0.22230142 0.70131105
000070 09 94 13 be 0a f0 ea be 54 19 0c be 9b 13 63 bd
       -0.1441194 -0.4588626 -0.13681537 -0.05543862
000080 3c 05 8b be 42 27 da bc 0b 36 a8 3e d9 cc f1 be
       -0.2715243 -0.026630048 0.32853732 -0.472266
000090 03 3f fe 3d 14 58 f2 3d 46 f7 7a bd 1f e7 8a be
       0.12414362 0.11833206 -0.061270975 -0.27129456
0000a0 07 fd 2a bf 90 06 e5 bc 44 37 27 3e 00 d9 8e bd
       -0.6679234 -0.02795723 0.16329676 -0.06974983
0000b0 d7 23 d8 bd 11 1d 0f 3f d8 4f 52 be 77 4a 6b be
       -0.10553711 0.55903727 -0.2053827 -0.22977625
0000c0 6a af 22 3f 56 74 0c 3d 06 97 b5 bd 01 30 3d be
       0.6354891 0.034290634 -0.08866696 -0.18475343
0000d0 27 ab d0 be 17 e9 cc 3d 9e a4 0a be 4f 44 aa bd
       -0.4075558 0.10005396 -0.13539359 -0.0831381
0000e0 84 96 f1 3d 8f ba c2 bd 57 ee 40 3e f9 c7 98 be
       0.11796287 -0.095082395 0.1884092 -0.29840067
0000f0 c5 e2 ec 3b 1e 2b 81 3e e3 69 ba bd 08 68 ee be
       0.0072291815 0.25228208 -0.091022275 -0.46563745

fc4.weight f4 [32, 64]
000000 84 ac cc 3d b2 a3 6f 3d 70 d0 31 3d 7e e9 d3 3c
       0.09993842 0.05850572 0.043411672 0.025868174
000010 21 d0 26 bc 78 67 36 bd 1d ce c9 bd c8 e1 d9 3d
       -0.010181458 -0.04453227 -0.09853766 0.106387675
000020 07 2f 1b 3e bc be d9 bd cb eb 02 be cb 17 5e 3d
       0.15154658 -0.10632083 -0.1278526 0.05422191
000030 80 c5 81 bc 90 7e 04 bd ae f9 98 3b 4c 81 31 be
       -0.015841246 -0.032347262 0.004668436 -0.17334479
000040 99 01 ef bb e7 a9 fb 3c 26 81 14 be ad 9e 29 be
       -0.0072938916 0.030720664 -0.14502391 -0.16564436
000050 64 8a 38 3c 6c e3 76 bd d5 1d d4 bc 28 15 c1 bd
       0.011263464 -0.06027548 -0.025893131 -0.09427863
000060 48 50 f7 bd 8c 78 9a bd 82 1c 8b 3d 7a e5 38 3d
       -0.12075859 -0.07542524 0.06792547 0.04514072
000070 e5 8e b0 bc 91 e9 29 bd d0 2a e9 bc e0 4a b4 bb
       -0.021552512 -0.041482512 -0.028462797 -0.00550209
000080 2e 47 eb bd f8 ac 59 bd 95 24 16 be 58 3d c7 3d
       -0.11488186 -0.05314347 -0.14662392 0.09728497
000090 0b f6 47 3d 17 46 0c be 51 b5 66 3d 0e 32 85 bc
       0.04881863 -0.13698612 0.05632526 -0.01625922
0000a0 b0 00 89 bd b3 b0 8c bd 8f bf 2b be 96 50 c4 bd
       -0.06689584 -0.0686964 -0.16772293 -0.09585683
0000b0 0e 01 2e be 70 85 74 3c e2 df 22 be c1 5b c2 3d
       -0.1699259 0.014924392 -0.15905717 0.09490157
0000c0 34 0d de bd c9 2e 84 bc e9 0f 72 ba 9c 71 d4 3d
       -0.10842362 -0.01613559 -0.0009233938 0.10373232
0000d0 32 25 a7 bd a3 2b 06 3e 53 b2 d9 bd 38 2f 05 bd
       -0.08161391 0.13102584 -0.10629716 -0.032515734
0000e0 92 b0 e8 bd b3 b7 bf 3b 94 10 4b be 4e 7e 9f bd
       -0.11361803 0.005850756 -0.19830543 -0.077877626
0000f0 7c f1 65 bd cc 26 8e 3d ab 45 47 bd 75 12 9b bc
       -0.0561385 0.06940994 -0.048650425 -0.0189297
000100 fe c9 09 3e 16 99 a4 3d 98 57 28 bd 14 c9 d9 bd
       0.1345596 0.08037011 -0.04109916 -0.10634056
000110 0f 6e 0e 3d 6d 3c 79 3e 74 ae d1 3d 51 b7 21 3d
       0.03477293 0.24339457 0.102383524 0.039481465
000120 84 2f ce 3d c0 87 85 3e 76 f1 5f bc 69 e7 9c 3b
       0.10067657 0.26080132 -0.013668409 0.0047883284
000130 96 ab 3e 3e f2 6c 45 3d 34 23 5c bd 9f 65 07 be
       0.18620142 0.0481996 -0.05374451 -0.13222359
000140 64 be 2e 3e 7c 78 09 3e 2e 4b 4b 3d 2a b1 a8 3d
       0.17064816 0.13424867 0.049632244 0.08236916
000150 5e 5e bb 3d fa 25 45 3d e1 74 af bd 40 09 d7 3d
       0.091488585 0.04813192 -0.08567215 0.10499811
000160 8d 53 85 bc 26 62 6f be f9 bb 0c bd c7 ca a7 bd
       -0.016275192 -0.23377284 -0.034358952 -0.081929736
000170 58 af 11 3e a8 e6 7d 3e f8 9a 33 3d 63 73 9d 3c
       0.14227045 0.2479502 0.04384896 0.01922006
000180 b5 cb 0a 3e d8 a8 a7 bc a9 14 27 3d ea 87 9f 3d
       0.1355427 -0.020466253 0.040791187 0.077895954
000190 c0 30 58 bb a8 97 52 3e a5 38 32 3e 79 13 14 3e
       -0.0032988042 0.20565665 0.1740442 0.14460553
0001a0 92 d4 8f 3e 28 1e 92 3d fd 03 c6 3d 0e 64 a0 3d
       0.28091866 0.07134658 0.096687295 0.07831584
0001b0 c3 dc eb 3c 3f 8b 3e be 4e 7e 20 3e 84 5d 82 3d
       0.02879179 -0.18607806 0.15673181 0.06365493
0001c0 bf 81 e9 3c 93 e7 4e 3d de df 06 3c 1f 33 f3 3d
       0.02850425 0.050513815 0.008232085 0.11874985
0001d0 12 d8 84 3e 38 1c 99 3e 2d 0a 0d 3e c2 27 4e bd
       0.259461 0.29904342 0.13773413 -0.050330885
0001e0 03 dd cc 3d 5a fc a5 3d db 71 8f bc 4b 75 cc 3d
       0.10003092 0.08104773 -0.017510345 0.09983309
0001f0 70 63 67 3e dc 2a 9c 3c a4 c6 2a bc 44 f9 71 3e
       0.22596526 0.019063406 -0.010423336 0.23630244
000200 97 19 3d 3e c8 d3 6f 3c 7e 56 30 be 40 ce 92 3d
       0.18466793 0.014637895 -0.17220494 0.07168245
000210 4c 8d b2 3a 6c c8 b6 bd e8 ae 60 be 74 12 8f 3d
       0.0013622432 -0.08924946 -0.21941721 0.069859415
000220 f0 fb b4 3d 3b 3d 7d bc 68 8c 5e bd ab 62 db 3d
       0.08837116 -0.015456493 -0.05433312 0.10712179
000230 23 94 69 3e fc 41 19 bd 81 62 df bd 66 c0 37 bc
       0.22810416 -0.037416443 -0.1090746 -0.011215305
000240 c6 4d 9d bd 77 df 00 3d 0d 6b 9e bd f0 8e e7 bb
       -0.0768085 0.031463113 -0.07735262 -0.0070666
000250 e3 fc d2 bd b2 48 d0 3d d4 4e 94 bd 96 4e ee 3a
       -0.103021406 0.101701155 -0.07241598 0.001818138
000260 35 53 0c 3e 72 91 b4 3c 5a 31 c0 3d f5 39 13 3c
       0.13703616 0.02204201 0.09384413 0.008985986
000270 8f 5f d6 bb 4f dd 41 bb 7e 88 82 3d 3e 9f 39 be
       -0.006542153 -0.0029581373 0.0637369 -0.18127152
000280 20 e3 4c be e0 21 a6 bc d1 c5 9f bc e7 82 b8 3d
       -0.20008516 -0.020279825 -0.019503506 0.09009343
000290 c5 ee 29 bd 37 48 2f bd 56 a0 26 3d 53 1e 76 3c
       -0.041487474 -0.04279348 0.040680252 0.015021878
0002a0 c0 c7 8b 3d ed 3e 80 bd 92 65 5d bd 3a 6e ee 3c
       0.06825209 -0.06262002 -0.054051943 0.029105294
0002b0 ee b4 e2 bd 12 c7 05 3d b3 c2 e5 bc 03 a8 31 be
       -0.11069666 0.03266055 -0.028046941 -0.17349248
0002c0 0d 77 c7 3d c3 af f6 bc c9 94 d7 3c b7 39 ba bd
       0.09739504 -0.030113107 0.026316063 -0.090930395
0002d0 26 6a 8d 3c b7 b9 1d 3d f9 b1 de 3d 3c 60 b8 bc
       0.01726253 0.03850719 0.10873789 -0.022506826
0002e0 6d 1b 31 be 7f cb e2 3a 87 96 03 be d6 69 de 3d
       -0.17295618 0.0017303078 -0.1285039 0.1086003
0002f0 c0 ac a1 bb 45 11 43 3e 48 cc e6 bd 3d 65 0b be
       -0.0049339235 0.19049557 -0.11269432 -0.13612838
000300 33 61 83 3c b1 85 ab 3d 00 bb 04 3d ee 88 2c bd
       0.01603756 0.08375109 0.0324049 -0.042122774
000310 8c 78 aa bd aa 45 0f 3c f8 90 71 bd 18 49 02 be
       -0.08323774 0.008744637 -0.058976144 -0.12723196
000320 82 9d 4b bd 9e f1 42 be 21 2e dc b9 4f 1c d4 3c
       -0.049710758 -0.19037482 -0.0004199604 0.025892405
000330 8b f8 9a 3c d4 8c 38 bd f2 40 9f 3d 9b 93 d6 3c
       0.018917343 -0.04505618 0.07776059 0.02619343
000340 5d 9a b2 3d 64 97 85 bd 88 1f 61 bd cb e2 b1 bd
       0.08720849 -0.06523016 -0.05496171 -0.086858355
000350 e9 5c 17 bd b4 5f fb 3c e0 d1 41 be fd 28 84 bd
       -0.03695384 0.030685283 -0.18927717 -0.064531304
000360 b4 f0 1b 3e f7 cf e1 bd 37 67 ad 3d 6d 34 aa bc
       0.1522854 -0.11025994 0.08466952 -0.020776952
000370 7b 16 98 bd d9 86 b8 bc 72 c6 61 bc e4 4d 04 bd
       -0.07426163 -0.022525238 -0.013780223 -0.032300845
000380 0e 51 08 be ea a9 f2 3d 63 ee 00 3e a1 b7 a6 bd
       -0.1331217 0.11848815 0.12590937 -0.08140493
000390 4a 6f e4 bc 6a c0 45 3c f7 5f 86 3c fa c8 d3 bd
       -0.027885098 0.012069801 0.016403181 -0.103410676
0003a0 3c 36 3d 3d 6f cd 2e be 44 30 02 be 4a 91 cc 3c
       0.0461943 -0.17070554 -0.12713724 0.024971623
0003b0 6a 6a a4 bc a0 17 1a bd 71 e2 8f 3b e3 fb 19 bd
       -0.020070273 -0.037620187 0.0043910076 -0.037593734
0003c0 be 0c 34 be 0d 46 fa bd c0 83 ee 3d 57 77 d3 bd
       -0.17582986 -0.122203924 0.11646223 -0.10325497
0003d0 6b 2e 88 bd 18 ef 09 3c cb 13 14 3e 9a 27 ba 3d
       -0.066494785 0.008418821 0.14460675 0.09089585
0003e0 ef 83 86 3c b5 68 cf bd 42 8c 85 3d b2 7a b8 bd
       0.016420333 -0.10127393 0.06520893 -0.09007777
0003f0 4e e0 05 be 7b 7f af 3c 8f f5 a2 3a 06 2e 7b bd
       -0.13073847 0.021423092 0.0012432801 -0.06132319

fc4.bias f4 [32]
000000 d9 1e 94 bd fd aa 9c be 38 e9 05 bc 56 6c 3b 3c
       -0.07232446 -0.30599204 -0.008173279 0.0114394035
000010 94 d0 ae 3e 53 ca 02 bd 6c 13 8a be a7 c2 0c be
       0.34143507 -0.031931233 -0.26967943 -0.13746129
000020 5a 9e 33 be 07 11 b5 bd 65 71 e4 bd 93 68 02 3d
       -0.17540875 -0.08841138 -0.11154441 0.03183801
000030 d0 8e 20 be 65 9a 23 be 32 92 41 be c8 85 1c bc
       -0.15679479 -0.15976866 -0.18903425 -0.00955338
000040 3d 67 8e bd a1 42 a1 bd 7c 4a 6d be ec ac 87 bd
       -0.06953285 -0.078740366 -0.23172945 -0.06624779
000050 dd 3c 67 bd 61 8d b2 bd e5 09 b1 3d 87 fc 5d 3f
       -0.056454528 -0.08718372 0.08644465 0.8671345
000060 a1 53 ec bd 89 d2 d0 bc 1e 56 08 bd 82 39 84 bc
       -0.115393884 -0.025491016 -0.033285253 -0.016140703
000070 e1 d0 34 be 94 30 e7 3e 8a 5c 1f be 14 6e fd 3e
       -0.17657806 0.4515425 -0.15562645 0.49498045

fc5.weight f4 [16, 32]
000000 03 52 1d be eb 72 91 bd a2 53 60 bd a8 2c f1 bd
       -0.15363316 -0.07101997 -0.05476726 -0.11776096
000010 1c e4 c2 bd 0d f4 a1 be 53 77 36 3d 20 d7 df bd
       -0.09516165 -0.31631508 0.04454739 -0.10929704
000020 aa 40 d7 bd f1 a0 1a 3e 3e 60 ae bc 3b fe 8f bd
       -0.105103806 0.15100457 -0.021286126 -0.070309125
000030 da 3d 09 be a8 32 94 bc d3 9a 1a 3e 48 d7 ae bd
       -0.13402501 -0.018090561 0.15098123 -0.085371554
000040 51 55 5c be d5 01 42 be 5f 34 0f 3d 60 e2 cf bd
       -0.2151692 -0.18946011 0.034962054 -0.101505995
000050 ab 5d c2 bc 88 14 03 bd 7e 03 73 be 52 1c 0c be
       -0.023726305 -0.032002002 -0.23731801 -0.13682678
000060 9c df 62 3d 9a 36 bb bd 3a 05 2f bd 0c fd 64 bd
       0.05538903 -0.09141274 -0.042729594 -0.055905387
000070 64 dd a6 3d 89 49 05 be 6d 5b e2 3d 2d 9d 38 3d
       0.08147696 -0.13016333 0.11052594 0.04507177
000080 65 d0 29 be 96 ff 47 be 0e c3 94 3d a2 82 ef 3d
       -0.16583402 -0.19531092 0.07263766 0.11694838
000090 93 13 7e be fd e9 72 be da 95 ab 3d f9 29 5d be
       -0.24812154 -0.23722072 0.08378191 -0.21598043
0000a0 bb 9b a4 bd 45 50 30 3e ab f9 32 be 60 39 14 3d
       -0.08037516 0.1721812 -0.17478053 0.03618753
0000b0 2a d3 03 be e0 2a 94 bd 00 af f7 3b 09 02 14 be
       -0.12873521 -0.0723474 0.0075587034 -0.14453901
0000c0 60 bd 6e bc a7 02 fc 3d f0 f7 22 bd 92 d4 b5 3d
       -0.014571518 0.123051934 -0.039787233 0.08878435
0000d0 90 04 23 3c 5e 65 5a bd 5d ee 8f bb 18 83 fd 3c
       0.009949818 -0.053319328 -0.004392429 0.0309463
0000e0 00 77 98 3c de 1d fc 3d 74 da 57 be 1a 14 d6 bd
       0.018611431 0.12310384 -0.21079427 -0.10453053
0000f0 62 37 d0 3d 3a bd a4 bd 31 6f 1c be 88 c5 5a bd
       0.101668134 -0.080439046 -0.15276791 -0.053411037
000100 5c 9c a4 bd d3 c1 cb 3d 14 96 47 be e0 b9 2e 3e
       -0.08037636 0.099490784 -0.19490844 0.17063093
000110 69 f3 b3 3d 6f 4b cf 3d e7 3c e8 3d b7 13 ed 3c
       0.08786661 0.1012181 0.11339741 0.028940065
000120 50 9e cb bd 95 9f 26 3e 4e 6f 8e bc a1 74 fc bd
       -0.09942305 0.16271813 -0.017387059 -0.12326933
000130 9a e3 b0 3d 1e 72 74 bd 36 c3 2c 3e 8e f7 a9 3d
       0.086371616 -0.059679143 0.16871342 0.082991704
000140 55 44 bf bb c0 d1 3e be 67 c5 2e be ff 58 24 3d
       -0.0058370032 -0.18634701 -0.1706749 0.040123936
000150 47 31 bc bd d9 5f 64 bc 3c fe 48 bb 60 37 f5 bd
       -0.091890864 -0.0139388675 -0.0030669114 -0.119734526
000160 ac 1c db 3d 4d 23 59 3d 3c 6f af 3d 27 b1 09 3d
       0.10698828 0.05301218 0.08566138 0.03361621
000170 00 88 02 bb 6b ae b6 3d e8 dd 02 be 04 af 29 be
       -0.0019917488 0.08919986 -0.12779963 -0.1657067
000180 dc e6 c6 bd 7c 51 2e bd bb 9a 72 bc 3a 58 bb 3c
       -0.09712002 -0.04255818 -0.014807398 0.022869218
000190 63 4c fc bd 16 de 04 3d 18 c5 1a be 26 14 ab bd
       -0.12319257 0.03243836 -0.15114248 -0.083534524
0001a0 f6 73 65 bd a8 3d 9e 3d 59 18 a7 bc 58 03 56 3d
       -0.056018792 0.07726604 -0.020397352 0.052249283
0001b0 d5 0a 61 be a4 5f 42 3c a7 ce 47 3e ca 01 64 bd
       -0.21976788 0.011863623 0.19512425 -0.05566577
0001c0 53 57 11 3d 12 a1 43 bd 79 e9 ef bd 9b 3b 4e 3e
       0.03548367 -0.04776103 -0.11714453 0.20139925
0001d0 fa bf 4c 3b dd 6f ea 3d 78 8b a7 3d 60 34 40 3e
       0.0031242357 0.114471175 0.081808984 0.1876998
0001e0 b1 9f 63 bd c2 b4 a1 3d d1 9b 2a bd f7 d9 81 3d
       -0.055572215 0.07895805 -0.041652504 0.063404016
0001f0 fa 8d b9 3d ad 73 42 3d 2e c6 61 3d c7 ec ee 3e
       0.09060283 0.0474736 0.05512064 0.46665022
000200 86 64 1d be 97 0e 82 be 93 5d 43 be f1 9f 01 bd
       -0.15370378 -0.25401756 -0.19078664 -0.031646673
000210 ed 8c 65 3c 86 05 83 bc 80 68 08 be ac a4 40 be
       0.01401065 -0.015993845 -0.13321114 -0.18812817
000220 41 aa 64 3d c6 a6 9b bd e4 96 25 be 85 4e a1 bd
       0.05582643 -0.07600169 -0.16170841 -0.078763045
000230 0a 4b c8 3d 01 b6 03 bd f4 f0 3d 3e ed f8 de bd
       0.097799376 -0.032155994 0.18548948 -0.108873226
000240 db 30 31 bc 83 5f e4 3d f4 43 c2 3c e4 22 81 bd
       -0.010814871 0.1115103 0.023714043 -0.06305483
000250 81 f7 6c bb 9a c6 4a be bf bc 4e be 94 81 ff bd
       -0.0036158266 -0.19802323 -0.20189188 -0.12475887
000260 a5 1e 67 3e c3 c2 98 bd 43 e3 7e bd 2f a7 18 bd
       0.22570284 -0.07459023 -0.062228452 -0.037268814
000270 a8 6a 61 bd 0c bd 2b bc 77 19 39 bd c3 e7 85 be
       -0.055033356 -0.010482084 -0.0451903 -0.26153383
000280 47 2a d2 bd da 0a 1d be 95 69 06 be d4 1d b1 3c
       -0.1026197 -0.15336171 -0.13126214 0.021620668
000290 6d 7c 1c bd f1 65 29 be 2e 1e 3a 3e a0 81 8c 3d
       -0.0382046 -0.16542794 0.18175575 0.068606615
0002a0 0f 9c 2c 3e cb 39 f2 bd c8 59 71 3c 5b 66 a6 3d
       0.16856407 -0.118274294 0.014730878 0.081249915
0002b0 07 51 2b 3b 76 58 c6 3d 07 1c ab bc 57 4e fd bd
       0.0026140825 0.09684841 -0.020887388 -0.12368458
0002c0 58 c9 35 3e c5 41 42 bd 5b 5e 8e 3d aa 43 43 3c
       0.17752588 -0.047426004 0.069515906 0.011917988
0002d0 af e9 82 be 82 54 3d be 43 c5 0a bd f7 70 01 3c
       -0.2556891 -0.18489268 -0.03387953 0.007900468
0002e0 db 77 a6 3c 2b f0 d3 bd 47 78 81 3d 88 10 49 bd
       0.020320823 -0.10348543 0.06321769 -0.04908803
0002f0 8c c6 15 bd e3 28 f2 bb fe ff ae 3d d1 ef 3a bd
       -0.036566302 -0.007390128 0.085449204 -0.045638863
000300 1c 5d ee 3c ed 1a 3f be 54 46 f7 3c 6f 0a 17 3d
       0.029097132 -0.18662615 0.030184902 0.036875185
000310 dd 31 29 be a6 62 63 be a0 cf e4 bc e1 64 ac bc
       -0.16522928 -0.222056 -0.027931035 -0.021044197
000320 1c 15 9c 3d cd aa 1a 3e 19 16 7a 3d 51 4d e5 bd
       0.07621214 0.15104218 0.06105623 -0.111963876
000330 d8 e3 8e bc 34 ac 67 bd f8 c4 ec 3d bf f0 00 3c
       -0.017442629 -0.05656071 0.11561006 0.007869898
000340 63 3a b9 ba a5 25 2e be 40 9d 48 3e 64 b0 e8 3d
       -0.001413178 -0.17006548 0.19591236 0.11361769
000350 86 48 d0 3d 49 e9 af bd a4 89 16 3d 87 a2 18 be
       0.10170083 -0.085894175 0.036752358 -0.1490575
000360 b6 d9 96 3d 2e ca b5 3d 40 2a dd bd fe 53 6d 3e
       0.07365744 0.08876453 -0.10799074 0.23176572
000370 57 da c6 3d 77 ee 5c be ef d3 bc bb 32 8c 33 bd
       0.09709614 -0.21575342 -0.005762569 -0.043834873
000380 5c 38 c1 bd 42 0e 17 3d 03 a6 8a 3d 88 ee c8 3d
       -0.09434578 0.03687883 0.067699455 0.09811121
000390 e5 bf 90 3d 10 eb 61 be 86 15 7e 3d d8 f2 a3 bd
       0.07067851 -0.22062325 0.062032245 -0.08005303
0003a0 6a 7e 6c 3e e6 ae eb 3d 98 69 81 bd 8b ed a5 3d
       0.23095098 0.115079686 -0.063189685 0.08101948
0003b0 ea 22 3c 3e b9 c4 25 3e 4d f4 be bd 40 69 b4 3d
       0.18372694 0.16188325 -0.093239404 0.08809137
0003c0 82 c2 c4 3c c2 b0 f4 bd 91 85 fe bd 97 03 1f be
       0.02401853 -0.119477764 -0.124278195 -0.15528713
0003d0 49 0d dd bd cb 4d 00 3d 89 03 76 be b8 dd 74 3a
       -0.107935496 0.03132419 -0.24024786 0.00093409
0003e0 19 f5 7d bb 43 40 fa bd 65 6e 24 3e 18 49 8d bc
       -0.0038750826 -0.12219288 0.16057737 -0.017246768
0003f0 1d 9a 65 3d da dc 30 be 18 dc 6a bc d3 ca ab 3d
       0.056055177 -0.17271748 -0.014334701 0.08388295

fc5.bias f4 [16]
000000 ab 72 83 3b c6 e0 01 be 0a 01 37 3d 20 63 51 3f
       0.004011472 -0.126834 0.044678725 0.8179188
000010 cf 72 1e 3d fc 5b d0 bb ae e4 03 be 01 5b 69 be
       0.03868371 -0.0063586216 -0.12880203 -0.22788621
000020 4a 0f dd 3e d9 93 bf 3e ed 65 0f 3d 80 51 52 3e
       0.43175727 0.37417486 0.035009313 0.20538902
000030 fc be c1 3d 08 af 21 be 70 ee c1 be 6f 60 36 bd
       0.094602555 -0.15789425 -0.37877226 -0.04452556

fc6.weight f4 [1, 16]
000000 e4 dd 3d bc 6d 9c 4e bd 70 9b 67 3d 91 70 3b be
       -0.011588547 -0.050442148 0.05654472 -0.1830466
000010 6c 3c 48 bd ef 60 86 3d eb 0f 95 be 3e 31 90 3d
       -0.048885748 0.06561457 -0.29113707 0.07040642
000020 c7 1a ab bd 79 ce 8d be 3b 68 92 3c 7c f0 17 bd
       -0.08354717 -0.2769659 0.017871967 -0.03709458
000030 86 7f 51 bc db 4a 00 be 65 45 ff 3d fd fb 4d 3e
       -0.012786752 -0.12528555 0.12464408 0.20115657
